Backend/tugasakhirbootcamp/neural_netwrok_model.tflite (tflite, 107940 bytes, 8 tensors)

arith.constant f4 [3, 64]
00000000: d655 2cbf ee21 423f c04e 3c3e 7eb1 f4be
00000010: ea26 4e3f f951 9ebe c1c9 92bf 0e90 bebf
00000020: 0588 4c3d 1a16 ac3e 561e 433f e036 4dbf
00000030: 0685 aabf 12a4 1b3f c8cd 12bf 9b3d bcbe
00000040: a2fc 7b3f 4777 51bf 368f 5abf 1fb6 06bf
00000050: cd6e ab3e 5672 e43e d4c8 393f 0950 273d
00000060: 2130 a6bf c5ca 413f 2c69 28bf dcaf 0b3f
00000070: 523e 97bf 795a c73d 465d 2e3f 086e aa3e
00000080: 0b64 4c3f 5a7f 9d3e ef8e 17c0 d8a8 ddbe
00000090: 7aac 56bd 5b09 db3f f682 0d3f 48f8 11c0
000000a0: c57f 0cc0 78b6 97be ea39 34bf 24f4 ffbf
000000b0: 21a5 813f f9a1 1bbf 641d a5bd 0255 ac3f
000000c0: 802c 7c3d 2645 9e3d 2949 b2bf 3cf2 dabe
000000d0: 8bb1 693f 43e2 f6be 55af 233f b720 993d
000000e0: a91d 8fbf edfa 263f 113c ebbb 4233 083f
000000f0: 6767 6bbe c652 86be 304c 9c3f 00f7 393f
00000100: 4746 a23d a65a 033e a5ab e13d d6ee 443f
00000110: b1c0 223f 24b6 973f e688 f83e 31e6 ad3f
00000120: a5c1 0bbc 1c31 0a3e 40a8 463e 6f91 413f
00000130: ef14 4e3f cee5 653f 3d31 1b3f 18de 39be
00000140: 879e 23bf 2fde 0c3f f055 ad3f 77ff 69bf
00000150: b769 483f 72e9 c23e 624d ecbf f7ed 223f
00000160: aea6 c5be d083 1ebf 1664 513f 1952 32bf
00000170: 7fe6 f73e cd06 dc3e 4588 95bf 79c5 54bf
00000180: bba7 56bf 4601 ab3e 6213 0240 fba6 2abf
00000190: 5e49 9abf ee96 debf 4919 9c3e e9fc 853f
000001a0: bee5 f93f ca83 793f 0fc6 833e 7253 c23f
000001b0: ae8c 03be f1a1 07bf 38ff 8cbf 70cf 90be
000001c0: f48d 18bf 3a4c 65be b6a3 533f bcef 253f
000001d0: 512e 8bbf a8a3 593e 04d2 93bf 8ddd 653f
000001e0: 4aa6 c73e b76c 803e 082b 593f 56f2 10bf
000001f0: f6d3 6cbe 82c5 85bf be39 01bf 23e2 cdbd
00000200: f6ff 213f 86d7 d1be 4431 0a3e 0135 15bf
00000210: c2b0 aebf 9243 54bf 4ab7 fb3e 13b0 13be
00000220: 92d2 473c 0b2c fcbe a4c7 62bf a55c 353d
00000230: 1e40 003f 4f85 c0bf 1e6d 4bbd 3b45 283f
00000240: ba19 93be f656 023f a0e8 8fbf c900 7c3f
00000250: 09dd 58bf 2cd5 5abf 85d3 cd3c 3076 8fbf
00000260: e9b4 533f 909a 4bbd a60d a33d 1468 173e
00000270: ee16 073f ee3b 18bf 22f8 543f 1767 b53e
00000280: ec97 fa3e c1f6 71bf 17e1 50bd a554 363f
00000290: 0493 763f 4b6c b63d cb18 e2be e933 013e
000002a0: d412 84be 3614 b0bf 7562 193f 6f6a 1ebf
000002b0: 1991 b3bf c397 0f3f 0f35 6e3f 25a8 96bf
000002c0: 6ec7 433f fbaa fb3e ec96 8ebe c47f 063d
000002d0: 0f4a af3e fd16 d33e b1b0 253e 3073 b8bf
000002e0: 2fc7 373f 1da0 2cbf 177c 9dbf 7c44 323e
000002f0: a325 86be 6369 203f 00ac a5bd 555a 5fbf
-0.67318475 0.7583302 0.18389416 -0.47791666 0.8052813 -0.30921915 -1.146782 -1.4887712
0.049934406 0.33610612 0.76218164 -0.8016186 -1.3321846 0.60797226 -0.5734525 -0.3676575
0.9843236 -0.8182263 -0.8537477 -0.52621645 0.33482972 0.4461848 0.72572064 0.04084781
-1.2983438 0.75700027 -0.6578548 0.54565215 -1.1815894 0.09734053 0.68111074 0.33287072
0.79840153 0.30761224 -2.368099 -0.4329288 -0.05241058 1.711223 0.55277956 -2.280779
-2.1952984 -0.296314 -0.7040087 -1.9996381 1.0128518 -0.60794026 -0.080622464 1.3463442
0.061565876 0.07728033 -1.3928577 -0.42762935 0.91286534 -0.482195 0.6393941 0.07476943
-1.1180927 0.6522663 -0.0071787913 0.53203213 -0.22988664 -0.26235026 1.221075 0.7264252
0.079235606 0.12827548 0.11019067 0.76926935 0.63575274 1.185246 0.48541945 1.3585874
-0.008530055 0.13495296 0.1940012 0.7561254 0.8050069 0.8980378 0.60622007 -0.18151128
-0.6391377 0.55026525 1.3541851 -0.91405433 0.7828631 0.3806873 -1.8461115 0.63644356
-0.3860373 -0.6191988 0.81793344 -0.6965652 0.48418042 0.4297394 -1.1682211 -0.8311382
-0.83849686 0.3339941 2.032433 -0.6666104 -1.205364 -1.738981 0.3048804 1.0467807
1.9523237 0.9746672 0.25737044 1.5181715 -0.12846634 -0.5298148 -1.1015387 -0.28283262
-0.59591603 -0.2239236 0.8267168 0.6481893 -1.087351 0.21253836 -1.1548467 0.89791185
0.38994056 0.25082943 0.84831285 -0.56619775 -0.23127732 -1.04509 -0.5047873 -0.10052898
0.6328119 -0.40984744 0.13495356 -0.58284 -1.3647692 -0.82915604 0.49163276 -0.14422636
0.0121962 -0.49252352 -0.8858588 0.044277806 0.50097835 -1.5040683 -0.04966461 0.6573064
-0.28730565 0.5091394 -1.1242867 0.984387 -0.8471227 -0.85481524 0.025125274 -1.1207943
0.8269792 -0.04970795 0.079615876 0.14785796 0.5276936 -0.59466445 0.8319112 0.35430214
0.48944032 -0.9451714 -0.050995912 0.7122291 0.9631808 0.08907374 -0.4415954 0.12617458
-0.25795615 -1.3756168 0.5991586 -0.61881155 -1.4028655 0.56090945 0.9304971 -1.1770064
0.7647618 0.49153885 -0.2784952 0.03283669 0.3423619 0.41228476 0.16180684 -1.4410152
0.71788305 -0.67431813 -1.2303494 0.17408937 -0.2620059 0.6266081 -0.08089447 -0.8724721

arith.constant1 f4 [64, 128]
00000000: 0653 21bf 8326 8f3d c7ff 533e 2d74 82bf
00000010: ceb6 393f 9c67 e93d 0fda 8fbd 6571 02be
00000020: c8ff d23e c846 013d 8c89 843f 1c84 10c0
00000030: 7ab5 05bf ceb6 833d 6dc5 a8bf eee9 b4be
00000040: 50cb 423e 2d61 0cc0 34e2 19be a382 ca3e
00000050: fddf 5abf 8206 653e 86e3 cdbf d761 4b3d
00000060: e7a3 cf3e 10e2 c7bb 032a 22be 9d2e 3ebc
00000070: db94 95bf af12 193d 32ac 1a3f 9a27 e2bc
00000080: 51b6 0a3f 123b 14bf ab0a 5dbf d0df 1abf
00000090: a59f 163f aa9e 953f 36fa c13e 669f a3bd
000000a0: 7947 903e cc72 e23e fdc6 193e 8aa7 4abf
000000b0: d675 98bf 072a dfbc dcd6 a63f 7ca6 d3bd
000000c0: 16a7 e6be db5c 76bf 217b 8b3b 1a68 113f
000000d0: ea0b 6ebd 3d31 e5be 2370 bcbf fd0d cbb9
000000e0: 33fc 193f b989 963e 70fb c03e 1bb5 2d3e
000000f0: d88d 4b3e fae0 533f e101 903e d506 033f
00000100: 7af6 143f e32b 42bb c98d b03e a892 14bf
00000110: 3ee3 e13e 03b6 18bf 0303 abbf 506e 18bf
00000120: bf8b c7bd 773e f63e e08c bdbf 8045 e9bd
00000130: 6bb1 0a3e 63ec 393e fc77 483f 4ede 8bbd
00000140: 0e1d a9bf 98d6 5abe 4309 07bd b8a4 613d
00000150: d564 37bf a529 83be 14f7 c4be bd37 6e3e
00000160: 09c6 c7bc b198 a43e fc8f 253f 404d 9cbf
00000170: 24bb 6fbe 379d eebe 6787 0c3e 1a11 073e
00000180: fd01 43be 44ce 5bbf af02 9dbf e361 943d
00000190: 5022 2cbf 4578 b43e d284 4bbe 45b3 98bd
000001a0: 3cdc 1ac0 7fe7 8e3e d87e 78bf 47a1 67bf
000001b0: 7e65 3d3f 4c95 5dbf d8a5 8ebe b8cd 14bf
000001c0: 4120 fabf 0afd c1bb f8d0 ab3e 40f7 c3be
000001d0: 7eaa 903e 2f32 c13d 6092 ebbe 2314 043f
000001e0: 66f1 39c0 cf8f a6bf 1df4 143f 6915 b83e
000001f0: ee7f 543f 64cc d93e 5f08 423f 6257 95be
00000200: 5847 16c0 0f92 4b3f 1421 7dbf f806 0b3f
00000210: cf02 5fbf a2f0 9ebe 0db1 9dbd 9a93 893f
00000220: 2923 ecbd 2c81 b23e af1c 63bf 3000 7bbe
00000230: 0f4f f63e 99af a33e 6ebd 6d3f 11e8 a7be
00000240: 942a 30bf f121 4ebf f62c 6c3d 88b2 17bf
00000250: d12e 0d3f 7ac2 88bf d449 883e 5bbe 39be
00000260: bfa0 f23e a2d6 923d 62de d5bc 93b3 65bf
00000270: 759d edbe c5bd e93e f765 213e f0e1 7d3e
00000280: c532 44bc b799 323f ca09 9abe ec81 2abe
00000290: e335 85bd 0c5f 66be 1c6a b23e 66e1 1e3d
000002a0: b6f5 40bd 71ac 9e3d b09d 91bc 5593 58be
000002b0: face fe3e fb64 893d 9711 e0be e52b 52bd
000002c0: af4e fc3e 09a3 83bd d898 963d 5487 f8be
000002d0: 7924 b13d 9f49 333f 5153 b83e b1dd 51bd
000002e0: 07de 223f 8bf9 81bf 84bc 013f 47d3 ec3e
000002f0: 5681 75bf 369b 15bf fb77 19bf 2ccc 9a3d
00000300: 6958 7c3e 15bc 0b3e ca45 67bf cbbc febf
00000310: 222c 3ebe e0a0 4fbb 0ce1 13bd 6c79 3a3f
00000320: dd45 903f ce7a ab3e 3993 ca3e f0ea 183e
00000330: 68cc 48bf 1040 d3be 4e08 9e3e 4f3d 083f
00000340: 3afe 993d bd88 69bf 3481 95bf 887f 7cbd
00000350: 35d0 183e 0cfb 33bf 3358 ddbe 6f4e cabf
00000360: 6485 4e3e 2fe2 f83e 0cf7 eabf d240 7d3f
00000370: 17a7 08bf eb30 45bf ba0b ec3e 624e 28be
00000380: 7160 5f3c b816 f33d 0758 e03e 1f25 16be
00000390: b494 77bf ff50 b9bf 34ee 253f 8b1c 093e
000003a0: 657c 0b3f 0776 f9be 0bcd 1bbd e5b0 653e
000003b0: eb39 84bf 0b9d 6f3a 70c8 1c3f b6cc 5abf
000003c0: d260 01be d391 11be f9d2 1b3f dd08 743e
000003d0: e000 f13e 3fa2 b2bd f3d8 283e 2f3c 91be
000003e0: 13fe 6abf 241a 51be 72e7 f5bd 93fe 333c
000003f0: 403f ec3f 832f 08bf ad49 1bbf 72f3 1bbe
-0.6301731 0.069897674 0.2070304 -1.0191704 0.7254456 0.11396715 -0.07024013 -0.12738569
0.4121077 0.031561643 1.0354476 -2.2580633 -0.52230036 0.064313516 -1.318525 -0.35334724
0.1902287 -2.1934311 -0.15027696 0.39552793 -0.8549803 0.22365764 -1.608506 0.049653854
0.40554735 -0.006099947 -0.15836339 -0.011607793 -1.1686052 0.037371334 0.60419 -0.027606774
0.5418444 -0.57902634 -0.86344403 -0.6049776 0.5883735 1.1689045 0.37886208 -0.07989387
0.2817953 0.44228208 0.15017314 -0.79161894 -1.1910961 -0.02724172 1.303432 -0.10334489
-0.4504935 -0.96235436 0.0042566215 0.5679947 -0.05811683 -0.44764128 -1.4721721 -0.000387296
0.6015045 0.2940195 0.37691832 0.16963618 0.19878328 0.8276516 0.28126433 0.511823
0.58188593 -0.002962821 0.34483173 -0.5803628 0.44118685 -0.5965273 -1.3360294 -0.59543324
-0.09743451 0.48094532 -1.4808617 -0.11390209 0.13544242 0.1815658 0.7830808 -0.06829511
-1.3211992 -0.21370924 -0.032967817 0.05508873 -0.7163823 -0.2561771 -0.38469756 0.2326345
-0.024386423 0.32147744 0.6467283 -1.2211075 -0.23411232 -0.4660432 0.13723527 0.13190117
-0.19043727 -0.8586161 -1.2266444 0.07245233 -0.67239857 0.35248008 -0.19874886 -0.07456068
-2.419692 0.27910993 -0.9706855 -0.90480465 0.7398299 -0.86555934 -0.27860904 -0.581264
-1.9541093 -0.005920057 0.33557868 -0.38274574 0.28255075 0.094334 -0.46010113 0.51593226
-2.9053588 -1.3012637 0.5818499 0.35953835 0.83007705 0.4253875 0.75794023 -0.2916823
-2.3481045 0.7951974 -0.988786 0.5430751 -0.8711366 -0.31042963 -0.076997854 1.074817
-0.11530144 0.34864175 -0.8871564 -0.2451179 0.48107192 0.31969908 0.9286717 -0.3279424
-0.6881497 -0.8052054 0.057660066 -0.5925679 0.5514956 -1.068435 0.26618826 -0.18139021
0.47388265 0.07169844 -0.026107017 -0.89727134 -0.46409193 0.45652595 0.15761553 0.2479322
-0.011974995 0.697658 -0.30085593 -0.16651124 -0.06504419 -0.22497195 0.3484658 0.038789175
-0.04710933 0.07747734 -0.017775387 -0.21149953 0.49767286 0.067087136 -0.4376342 -0.051311392
0.4927878 -0.06427581 0.073533714 -0.48540747 0.08649535 0.7003421 0.36001065 -0.051236812
0.63620037 -1.015428 0.50678277 0.46254942 -0.95900476 -0.5843996 -0.599487 0.07558474
0.24643101 0.13645966 -0.90340865 -1.9901365 -0.18571523 -0.0031681582 -0.036103293 0.72841525
1.127132 0.3349213 0.39565447 0.14933372 -0.784369 -0.41259813 0.3086571 0.5321855
0.07519193 -0.9122427 -1.1680055 -0.06164506 0.14923175 -0.7030494 -0.43231353 -1.5805186
0.20168072 0.48610064 -1.8356643 0.9892703 -0.5337996 -0.7702777 0.46102697 -0.1643615
0.013633833 0.11869568 0.4381716 -0.14662598 -0.9671128 -1.4477843 0.64816594 0.13389795
0.54486686 -0.4872286 -0.03803734 0.22430761 -1.0330175 0.00091405277 0.61243343 -0.85468614
-0.1263459 -0.14215784 0.60868794 0.23831506 0.4707098 -0.08722352 0.1648901 -0.2836623
-0.91793936 -0.20420128 -0.12007035 0.010985988 1.8456802 -0.531975 -0.60659295 -0.15229586

arith.constant2 f4 [128, 128]
00000000: 3f18 5f3e 2d1f 91bd 1ee9 6abf 4edb 42be
00000010: c4d4 47bd 2a2d 67bf 9bc4 9ebf 7bdc f83e
00000020: d3cc bb3f ae1d fa3a df26 92bf e760 07be
00000030: d1ef 97ba 8d7f 3cbf c6e9 753e 7a1d 08c0
00000040: 897a 3cbf cae0 3dbf fc3b 99be bb29 57bf
00000050: f79c 56bf 928f f33e d10b bc3e 7f72 8fbf
00000060: 954e b8be 40cf d73e 2f3b 0cbf 689a c43d
00000070: 814f 9d3e 4249 c43e 7311 15c0 6395 60bd
00000080: 07a8 1bbd 5a45 e8bf 85e7 38bf a0fe f23d
00000090: 0908 033e 9e64 f33e fa5b 4abf a558 fe3e
000000a0: c2dc b93e b359 1b3f 66cc cbbd 7c36 79be
000000b0: d6b5 eabb caa5 9ebf 813b 6a3e da4d 053f
000000c0: b8f0 0fbf f246 f53e 910c 85be e629 893e
000000d0: dd52 6cbf 5009 bbbf 4d71 713d 77f1 883f
000000e0: 79a1 21be 866f bcbf 7f24 83bf 1506 423e
000000f0: 29bb f33e 26c3 0c3f 4e42 29bf 5617 dd3e
00000100: 90f6 d9be 810f 8dbe 382c 973b 2443 6abf
00000110: 8d1c 243f 8ba0 fdbf 2575 893e 19ee 393f
00000120: bfae 31bf 210e 08bd 0f0a dabb 9546 ea3e
00000130: 8cf9 333f 0f92 a9bf c6fd 08bb a2e9 67bf
00000140: 92c8 21bf 5c1c c83c c811 bd3e e18f 6fbe
00000150: fb59 393e 0769 283f ceaa 89c0 6cb8 a83e
00000160: fd50 9dbf 3f6e 6fbf 2b7d f6bd 966d 37bf
00000170: d52d d2bf cd98 793e 02c7 47c0 3fca c43e
00000180: a601 a33f 3e78 c4bf 8a9c 8fc0 8bf0 35be
00000190: 6126 93be 3559 413f 20f3 38bf f2d2 163e
000001a0: 2e44 e83e 9c77 8ebe 8107 01bf 20f7 f83e
000001b0: 6246 1c3e 237b 7c3e 05a5 263f 3116 f4be
000001c0: 42b0 0a3f 1516 78be 6731 733e ce92 db3e
000001d0: c57a 56bf 4111 fe3e 87e5 fbbf b7c7 e4be
000001e0: af27 2f3e 2936 c2bf 5fdb 46be cdb4 54bf
000001f0: c19a abbf ae77 213f 36c8 ba3e f113 43be
00000200: e361 523e 31cc 17c0 4198 cebe 7621 28c0
00000210: 9d2a 06bf 6f69 f3bd 48f5 f13e 28f6 f9bd
00000220: 6112 81bc 279f b2be 2fdd 123e a261 ff3d
00000230: 8c28 e9bf 9a75 dbbb a78a 86bf 3644 78c0
00000240: dd9f 863f cb07 af3e 2111 b63e 8ba1 3a3d
00000250: 69cd 3a3e a850 d5bf 9c18 8ebf 68e7 87bf
00000260: 2979 f63e 2c2e 7cbf e6b1 aabf 21dc 3e3e
00000270: f4b6 303d 34fa 88be 02ed 123e 9e91 89c0
00000280: 2b97 1dbe 285c 1c3f bdc9 d8be ec4b 6abf
00000290: ab77 543d 8a80 193f bf3a 58bf cfec 1c3f
000002a0: 3198 87be c46f 2dbf de06 db3e 4aaa 823e
000002b0: 471e b13b c1ee d4be 5529 c5bd da6f 33bd
000002c0: 146e 1abf 62ca 5d3e fac6 0fc0 a177 163f
000002d0: 3f14 123f 1cf4 143f 2cf3 72be dbbd f8be
000002e0: 7736 2f3f 455c a7bf 27f3 81c0 bcbe 82bf
000002f0: 9741 f43d 6465 b03e 3d8c 89bf ddb0 1b3f
00000300: 6156 3c3e 4602 fdbe 448c f63e 7988 bfbe
00000310: 67e8 80be 0cc4 dcbe 68b1 f0bd 72a1 6fbe
00000320: 6a4f 20bf 61c1 003f 2122 fa3e 9d6a 363f
00000330: 720f 783f c216 8c3d 23dd 25bf 3060 72bf
00000340: d3cc cdbf 9882 51be a408 133f ea9c 413f
00000350: 6507 e43e 1a38 23bf 9b52 1fbf 5853 b33e
00000360: 1d69 cdbe dc95 91be ce74 093e 826d 083f
00000370: ceea a3bd 0a45 a3bf 2bda 21bf c81d eebc
00000380: 165e 143f e024 59bf 7c3a eebe e408 353e
00000390: 7dbd d33e 4a85 c7be d2d0 de3e 3bbb f23d
000003a0: 0c97 1bc0 4c57 a3bd ab81 9d3e ca99 8e3e
000003b0: 0ae5 123e 512a 213f 7a6c 9a3e 62bd 833e
000003c0: fa50 32bf ab4e ca3e 00bf 133d adad d63e
000003d0: 1ee7 ec3d 49ec 963e d9fa cabe 5b74 9cbd
000003e0: dbe2 5c3f 9e89 223d 9b8e 9b3e ca7e 3b3d
000003f0: d497 66bf 98f8 61be c78b ab3e 635f 39be
0.21786593 -0.070860244 -0.9176196 -0.1902897 -0.048786893 -0.9030329 -1.2403749 0.48605713
1.4671882 0.0019082332 -1.1418113 -0.13220559 -0.0011591857 -0.7363213 0.24014959 -2.126799
-0.73624474 -0.74171126 -0.29928577 -0.8404805 -0.8383326 0.47570473 0.36727765 -1.1206816
-0.35997453 0.42150307 -0.54777807 0.09599763 0.3072472 0.3833714 -2.32919 -0.054829966
-0.03800204 -1.8146164 -0.7222827 0.11864972 0.12796034 0.47537702 -0.79046595 0.49677005
0.36301237 0.60683745 -0.09951095 -0.2433719 -0.00716279 -1.2394345 0.22874261 0.5207192
-0.5622668 0.4790569 -0.2598615 0.26789778 -0.9231394 -1.4612217 0.058945943 1.0698689
-0.15784253 -1.4721534 -1.0245513 0.18947633 0.4760373 0.5498527 -0.661168 0.43181866
-0.42570925 -0.2755089 0.0046134256 -0.915087 0.64106065 -1.9814619 0.26847187 0.72628933
-0.69407266 -0.0332166 -0.006654031 0.45756975 0.70302653 -1.3247699 -0.0020903214 -0.9059087
-0.6319667 0.024427585 0.3692763 -0.23394729 0.18100731 0.6578526 -4.3021 0.32953203
-1.2290341 -0.935276 -0.12035593 -0.7165159 -1.6420237 0.24374695 -3.1215215 0.38435552
1.2734878 -1.5349195 -4.487859 -0.17767541 -0.28740218 0.75526744 -0.7224598 0.14728907
0.45364517 -0.2782563 -0.50402075 0.4862604 0.15261224 0.24656348 0.6509555 -0.4767318
0.541752 -0.24227174 0.23749314 0.4288544 -0.8378108 0.4962254 -1.9679421 -0.4468362
0.17104982 -1.5172778 -0.19419621 -0.8308838 -1.3406602 0.6307324 0.36480874 -0.19050576
0.20545153 -2.3718379 -0.40350536 -2.6270423 -0.5240877 -0.11885344 0.47257447 -0.12205154
-0.015755834 -0.3488705 0.14342187 0.12469794 -1.8215499 -0.006697369 -1.0511063 -3.8791633
1.0517536 0.34185633 0.35559943 0.045564216 0.1824242 -1.6665239 -1.110126 -1.0617495
0.48139313 -0.9850795 -1.333554 0.1863866 0.043143228 -0.2675339 0.14348224 -4.2990255
-0.15389697 0.6107812 -0.42341414 -0.915221 0.051871937 0.5996176 -0.8446464 0.6129884
-0.264833 -0.67748666 0.42778677 0.25520545 0.0054052207 -0.41588405 -0.09627024 -0.04380784
-0.60324216 0.21659234 -2.2465196 0.5877629 0.57062143 0.5818498 -0.23725575 -0.48582348
0.6844248 -1.3075033 -4.0609317 -1.0214458 0.11926573 0.34452355 -1.0745922 0.60816747
0.18392326 -0.49415797 0.4815389 -0.37408808 -0.2517731 -0.43118322 -0.117525876 -0.2340143
-0.62621176 0.5029507 0.48854163 0.7125643 0.9689857 0.06840278 -0.6479055 -0.9467802
-1.6078132 -0.20459974 0.5743506 0.75630057 0.44536892 -0.6375748 -0.6223542 0.35024524
-0.40119258 -0.28434646 0.13423464 0.53292096 -0.0800377 -1.2755444 -0.6322352 -0.029066935
0.57956064 -0.8482189 -0.46528995 0.17679173 0.41355506 -0.3896888 0.43518692 0.11852118
-2.4310942 -0.07975635 0.3076299 0.27851707 0.14345184 0.62955195 0.30160886 0.25730425
-0.6965481 0.39513144 0.036070824 0.4192938 0.115675196 0.29477146 -0.39644507 -0.076393805
0.86283654 0.039682023 0.30382237 0.045775212 -0.9007542 -0.22067487 0.3350508 -0.18102793

arith.constant3 f4 [3]
00000000: c01d 053e 20b2 1b3e e909 90be
0.1299963 0.15204668 -0.2813256

arith.constant4 f4 [64]
00000000: cd37 b23e 0c47 8a3e 0a61 36be d207 3bbe
00000010: c4d9 23bf 5f8a ec3c ccac dcbe 5650 37bf
00000020: fe5e 01be 5f6d 74bd e135 fdbe c501 3ebf
00000030: 7439 b1be 264f 623e d3e2 f3bd e86a bbbe
00000040: d369 abbe 68c8 7bbf 6916 47be 35b6 51bf
00000050: 8a88 59be 6067 b83d 1195 86bf 808f d2bd
00000060: 7dfc 10bf 9aa0 6ebe 12a6 b3be ddaa ad3e
00000070: 229d e6bd 7098 013f cf2b 543f 64f4 13bf
00000080: fb38 8ebe 3d01 07be 13c9 cabe bb19 dcbe
00000090: e28e a3be 53c3 8fbf 95fa 30bd 5a6f 4f3d
000000a0: 9f97 0dbe 76ca f03c 31f3 89be 2e83 1dbf
000000b0: 2bd8 8ebe 32df 6f3f f21a b03e 593d 15bf
000000c0: 5a48 14be 29c3 79be f450 39bf 2800 813e
000000d0: 1e35 2dbf 207f 7abe 3aa8 833e cbca 0bbf
000000e0: c28a eabe 3e0a d13e 37e1 4b3f 78c1 673e
000000f0: a914 2bbe 7d19 7ebe 8434 8cbf 1792 8bbd
0.34808198 0.2700733 -0.17810455 -0.18264702 -0.6400416 0.028874574 -0.43100584 -0.7160696
-0.12633893 -0.059674617 -0.4945517 -0.7422145 -0.34614146 0.22100505 -0.11908498 -0.36605
-0.33479175 -0.9835267 -0.19442143 -0.8191865 -0.21243492 0.09004092 -1.0514241 -0.10281277
-0.56635267 -0.23303452 -0.3508764 0.3391942 -0.112604395 0.50623226 0.82879347 -0.57794785
-0.27777848 -0.13184066 -0.39606532 -0.4298838 -0.31944948 -1.1231483 -0.043207724 0.050643303
-0.1382737 0.029393416 -0.26943353 -0.6152829 -0.27899298 0.93699944 0.34395558 -0.58296734
-0.14480725 -0.24390854 -0.7238915 0.25195432 -0.67659175 -0.24462557 0.25714284 -0.5460631
-0.4580899 0.40828127 0.79640526 0.22632396 -0.167071 -0.2481441 -1.0953526 -0.06814974

sequential_1/dense_1_2/Add/ReadVariableOp f4 [128]
00000000: a3b7 cbbd 47dc c73d 5036 7a3d bc9d 423e
00000010: 8f83 023e 1718 973e a164 0fbe eda3 2d3f
00000020: 6922 b2be cbbb debe ec31 41be 9d3d f2bc
00000030: c6a3 67bf de76 09bf a3f4 1dbf 6ab3 1abf
00000040: 9f00 463e 9146 8c3d 0a83 3bbd 1ae4 eebe
00000050: 7e39 823e e4d6 8e3e 6e51 13bf a651 083d
00000060: 122f eabd fb33 86bd 785f 56bd 92a5 a03e
00000070: 4e89 11bd 4d09 8abe b659 3c3e efe6 d8be
00000080: f528 ed3e 0978 093f 9708 463f 3b5f 253e
00000090: c84a 14be 17db f93d 0e37 4dbe c6df c5bd
000000a0: fd7d 66bf 9024 13bf d371 97bd ea48 e93e
000000b0: a526 cbbe eb03 6cbd c8f4 f9be 3e0b 6a3e
000000c0: 47a1 1cbe f870 0abf ad05 94bd 16e5 08be
000000d0: 6a0e 9bbf d086 4e3e 9392 933e 6c42 3cbd
000000e0: 0eff aebe 3ff5 223e a174 c03e 6671 e73e
000000f0: c70b 103e 6376 84be c724 c3bc bc76 253f
00000100: 2f16 cfbe 8544 bb3d f70a 333f ac66 37bf
00000110: 30e7 983d e260 b0be f0ee 13bf d495 18bf
00000120: 20f0 723e 151f 313d 12a8 913e 52f4 b8bd
00000130: aa4f 8dbf 214a d73d da1b f13d b921 2c3d
00000140: 3e3f 10be 98ff 3e3f 96db 683d ba0c 09bd
00000150: 6abd 35be 50d9 06bf 063f b8be 1620 1fbf
00000160: eb26 5bbe d2ba 43bd 53ce c13e bc5b 41bf
00000170: 800f 193f 75a7 f2bd 4b26 063f 8db3 81bd
00000180: c2bf 73bd 0065 65be fe38 37bf f56d 5fbf
00000190: 6895 40be 0877 4f3e 0de6 09bf 862b 96bd
000001a0: 36e0 ccbe 5383 4cbd 7c9d 2fbf 3d8e c3be
000001b0: d8e9 b6be 7b2e 8bbf 20aa fc3e 765d 7d3f
000001c0: f048 273e 71cd 04bf a2bd 42bf ddf6 e9be
000001d0: f011 673e 9364 6cbf 7c36 7b3d bc82 10bd
000001e0: a728 c7bc a04a 25bf 33c4 e9bd 9431 babe
000001f0: 8ae5 d2be d284 a5bd 4a79 343f 0513 2f3f
-0.09947135 0.097588114 0.061086953 0.19005483 0.12745498 0.29510567 -0.1400323 0.67828256
-0.34791878 -0.4350265 -0.188667 -0.029570395 -0.90484273 -0.53697 -0.6170141 -0.60430014
0.19336174 0.06849397 -0.045779265 -0.46658403 0.25434488 0.27898324 -0.57546127 0.03328099
-0.11434759 -0.06552883 -0.05233714 0.3137632 -0.035531335 -0.2696022 0.18393597 -0.42363688
0.4632031 0.53698784 0.7735686 0.16149609 -0.14481652 0.12199991 -0.20040533 -0.09661822
-0.9003599 -0.57477665 -0.07394757 0.45563442 -0.3967792 -0.057620924 -0.48819566 0.22855851
-0.15295897 -0.54078627 -0.07227645 -0.1336864 -1.2113774 0.20168614 0.28822765 -0.045961782
-0.34178966 0.15913866 0.3758898 0.45203704 0.14066993 -0.25871572 -0.023821248 0.646343
-0.40446612 0.091439284 0.69938606 -0.7164104 0.074659705 -0.34448916 -0.57786465 -0.5960362
0.23724413 0.043242533 0.2844854 -0.090309754 -1.1039937 0.10512186 0.117728904 0.042024348
-0.14086625 0.74608755 0.05685004 -0.033459403 -0.17748037 -0.5267534 -0.35985583 -0.62158334
-0.21401565 -0.047785588 0.37852725 -0.755306 0.59789276 -0.11848346 0.5240218 -0.06333075
-0.059509046 -0.2240181 -0.7157134 -0.87277156 -0.18806994 0.2026025 -0.53866655 -0.0733252
-0.4001481 -0.049929928 -0.6859968 -0.38194457 -0.35725284 -1.087356 0.49348545 0.98970735
0.16336417 -0.5187598 -0.76070607 -0.45696154 0.22565436 -0.92340964 0.061331257 -0.035280928
-0.024311377 -0.64566994 -0.11414375 -0.3636595 -0.4119075 -0.08081974 0.7049757 0.68388397

sequential_1/dense_1/Add/ReadVariableOp f4 [128]
00000000: a5c9 c8be bfff 1bbe 51ed b0be ae1a 49bf
00000010: ccf3 99bf 2135 62bf 91c9 b4be 400a 1fbf
00000020: dbf4 923c 3452 dbbe 6a3c 1bbf 419a e03d
00000030: 6142 c7bd ff43 b7be 8155 0dbf 85e2 ecbe
00000040: 7f10 68bf 6918 d1be b8e0 16bf 659a 21bf
00000050: 3f23 5ebf 35c5 7abf 75d3 2abf 9b35 7cbe
00000060: 5a39 59bf 8544 55bf d10d debe 10a1 b1be
00000070: 1ada 79be 79bd 31bf 9454 c0be c97e 86be
00000080: 96b1 1dbd 1969 65bf 43f2 41be 51a7 11bf
00000090: a90f cabe b97e 91bf 518c a5be cebb acbe
000000a0: 7c57 bebe 8826 64bf 526f b4be 1816 82bf
000000b0: 3b2b e6be 7cee 19be 4952 85bf 7acb 8dbf
000000c0: 03f6 e6be 03e7 4ebf ce92 29bf 7823 54be
000000d0: 2cd2 b1bd 8118 dabe c540 1abe 21ea 73bf
000000e0: cbda 04bf 586a 36bf fec7 f1be fdbb 57be
000000f0: 64a6 2ebf 77c1 2dbf dff7 29bf 4ddd 8cbf
00000100: 5437 75bf 5ac1 91be 5459 9ebe ec42 91bf
00000110: 5fe2 0fbf 97de 3fbe ced1 a7bf 4833 bcbd
00000120: e94d 4bbf ecf4 35bd 12c1 5fbf b8ad 17bf
00000130: 65d1 b3bf f056 7dbf c0c7 73bf 8f31 2abe
00000140: 0724 ffbe f8b4 2bbe f909 86bf c383 12bd
00000150: ff61 4cbf 6b30 0cbf a602 76bf 8589 01bf
00000160: e874 fa3d 78d8 1dbe 021e acbe 422e dabf
00000170: 57c7 b8be dca8 26bf dc36 d83c 3070 6abf
00000180: 9728 88be 17dc 55bf 1a83 b0be 9878 ffbe
00000190: 8ed0 ac3c e961 7bbf c051 57be 514e 96be
000001a0: dad0 54bf 958d 19be 5741 66bf 223b 36bf
000001b0: b40e d8be 628e 12bf a848 00bf 9f5b 98be
000001c0: 7094 85bf 6219 85bf 17d4 66be 57aa 78bf
000001d0: c529 e4be 72d3 2abf 03a9 83bf 8ab6 55bf
000001e0: 4a14 70bf faa2 44be 108e 27bf 3d62 49bf
000001f0: ab00 4fbf 8b98 3cbf b7e5 8ebf 8884 0dbf
-0.39216343 -0.15234278 -0.34556058 -0.78556335 -1.2027526 -0.8836232 -0.35310033 -0.62125015
0.017939022 -0.42836154 -0.6063906 0.109669216 -0.09729458 -0.35794064 -0.55208594 -0.4626657
-0.9065017 -0.40838936 -0.58936644 -0.6312621 -0.8677253 -0.97957164 -0.6672891 -0.24629824
-0.84853137 -0.8330768 -0.43369916 -0.34693193 -0.24399605 -0.6942974 -0.37564528 -0.26268604
-0.038499437 -0.8961349 -0.18940072 -0.5689593 -0.39465073 -1.1366798 -0.32333615 -0.33737034
-0.3717612 -0.89121294 -0.3524118 -1.0162992 -0.44954857 -0.15032381 -1.0415736 -1.1077721
-0.45109567 -0.80821246 -0.6623963 -0.20716655 -0.08682665 -0.4259682 -0.1506377 -0.9527913
-0.5189635 -0.7125602 -0.47222894 -0.21067806 -0.6822264 -0.6787333 -0.66393846 -1.1005036
-0.9578755 -0.28467828 -0.30927527 -1.1348548 -0.5620479 -0.18737255 -1.3110902 -0.091894686
-0.79415756 -0.04442303 -0.87403977 -0.5924945 -1.4048277 -0.9896078 -0.9522667 -0.16620468
-0.49832174 -0.16768253 -1.0471793 -0.03577019 -0.7983703 -0.5476138 -0.9609779 -0.50600463
0.12229329 -0.15414608 -0.33616644 -1.7045367 -0.36089584 -0.6510141 0.026393346 -0.91577435
-0.26593468 -0.83538955 -0.34475023 -0.49896693 0.02109554 -0.98196274 -0.21027279 -0.29356626
-0.8313118 -0.14995416 -0.8994345 -0.7118398 -0.42198718 -0.5724851 -0.50110865 -0.297574
-1.0435925 -1.0398371 -0.22541843 -0.9713492 -0.44563118 -0.6672889 -1.0285953 -0.8348166
-0.9378096 -0.19202796 -0.65451145 -0.78665525 -0.80860394 -0.7367026 -1.1163853 -0.5528035

sequential_1/dense_1/MatMul f4 [128, 10]
00000000: e64b af3e fe02 85be a8b2 ad3e 9407 623e
00000010: 3c51 56bd 350b 93be f971 903e 6ecb 9bbe
00000020: bb33 5d3d ea99 553e 3ad7 12be 56d1 4ebf
00000030: 3b25 9e3d 3c73 56be c2a0 b33c 8966 ffbd
00000040: b0cf 083e bb52 0e3f 8d51 82bd 3976 19bf
00000050: d170 71be 41ef 61bf 1090 cd3e 2dbc 8ebd
00000060: 68ea 8cbc cbd5 b93e e59a f6be 8e78 c53d
00000070: ae3d ec3e be59 2fbf e7db c83f f5af e6bf
00000080: a4c1 1e3e e988 2bbe ca3e e0bd 74af a9be
00000090: 447d fc3e 9742 60be 6446 de3e 2a36 ddbe
000000a0: c826 d7be 6692 d73f 40f4 38be 7d7b 79be
000000b0: 304e 86be 6026 8f3e c06a b4be 64ec e83e
000000c0: 9552 e7be abcd 88be 7bec d93e aefe 243f
000000d0: 5c29 a1bf 5756 37be 22a8 f4bc 602e 523e
000000e0: 418d 07bf 2a9f 1e3f 2c8d 743d e181 40bf
000000f0: 8794 94bf 5b6b c6bf 9ae5 94bd 2e3f 40bf
00000100: 98e5 12bf efcb 343f 2cee f8be 1c23 d83e
00000110: 22b6 8dbe fb46 c6bd 22ec b83f 9a8b 0b3e
00000120: 52f7 573f 7705 02bf b6c6 c9be e002 a73d
00000130: 7b5d 3bbe 50a5 10be b06d 79bd 6317 833e
00000140: 5b1a 2abf 0a37 5dbe 3d13 7bbf 645c 16bf
00000150: 587a 16bf 619d 81bd d7ff 203e 3928 08bf
00000160: 309f 87be d0b0 f53e 2620 b43e ebc8 4b3f
00000170: 759a 0fbe 8673 123e 12e9 23be 318f 36be
00000180: ab69 423e d8e4 7e3e 7a63 b13e e53e 20bf
00000190: f5af afbe a0db 233f d83b 813f 8407 b1bd
000001a0: d664 eabd 8d78 0ebf dd3c 243f b4f0 debd
000001b0: 4e9c dcbe cdb5 d63e 1d56 03be 8773 473f
000001c0: dc3e b83e 52e2 11bf 2e0c 00bf a68f 9d3d
000001d0: 3c88 66be b8e8 2cbf b59e 2b3f 3511 8abe
000001e0: dfa4 413f e554 7f3d f962 90bf 06de 93bd
000001f0: 9ee8 56bd ca06 e0be 665b 003f 6c08 1b3e
00000200: 7c91 d83e 4e96 9abe e014 223f eaee 813f
00000210: e36d a73f b4e1 8cbe 7c3e 07bf 8a9b 8a3e
00000220: 7779 903d 9b99 8ebe 6a4f ebbe 48de c83e
00000230: d590 ae3f 8c41 46be b65f a8bf f66e 10bf
00000240: b8b2 06bf 80cb 863e d0ae 9dbc ed63 a1be
00000250: 87e9 833e 7c28 3d3e 365e 983e 9b92 79bf
00000260: f305 e6bf 24b7 a4be f05b e0be 35b2 9bbd
00000270: 984f 50be 587b 71be 1bb1 75be 041e ec3e
00000280: 8ed8 13bf 11b7 70bf edf6 8d3f d318 7b3e
00000290: 0b61 1c3e 815b 993e 2771 6cbe e9ab 823e
000002a0: 85dd 0c3e 702f f3be 6ec7 00be 8cfc bcbd
000002b0: d59e c8be 97a6 98be ec17 29be dd49 4ebd
000002c0: f86a 9fbd 0b52 d8be 6ab9 b53d 8a36 da3e
000002d0: 42d7 b6bf 3724 763e 91d2 8c3f 0640 60bd
000002e0: 87a5 a53e 63b7 cbbe b48f 363f 88ac 06bf
000002f0: 018e 073f a3b4 18be c33b 4dbf bfbf 04bd
00000300: da4c fc3e 8af9 603e 4480 6dbd 53f5 a8be
00000310: 2060 283f 4b59 f23e 362c 10bf 3a9f a23d
00000320: 729e 9dbf 07fe f03f 55da 3d3e 5d27 7e3e
00000330: 80f8 ea3c 21e2 7b3e 0025 b4bd 84fe ee3d
00000340: eed5 ab3e d446 fdbe 7701 e63d c4cb dabe
00000350: ffef 9b3f a1fd 0abf 7524 21bf 7575 f1be
00000360: bf09 1a3f 48b2 ba3e 9a55 17bf 572c be3d
00000370: 497d 173f 8b50 68bd e32a 853f 081d 283f
00000380: fed4 c23e 2237 a73d 2a17 853d b61f a0bd
00000390: ec7c f93e 796b 08bf 9f7c c1be b1ac 273e
000003a0: 7fea e8bf 66ea b63e 2cb8 8e3d 0c70 573e
000003b0: b83c 0dbd 08fd c93e 8430 9fbe 0507 e7bd
000003c0: 14e4 71bf 0fc5 e0be 49ed 003f 498b 273f
000003d0: 5338 403f b17e f53e c807 2cbe 25c5 313e
000003e0: af1c f2bd cea6 193e ee5d 833f 2b62 883e
000003f0: 53f1 c03f 7eb6 f53e 86e3 bd3e f5e9 60bd
0.34237593 -0.25978845 0.33925366 0.22073203 -0.052323565 -0.28719488 0.28211954 -0.30428642
0.054004412 0.20859495 -0.14339915 -0.8078817 0.07721945 -0.20942396 0.021927241 -0.12470729
0.13360476 0.55594987 -0.06363211 -0.5994602 -0.23578192 -0.882557 0.40148973 -0.069694854
-0.017201617 0.36295924 -0.4816505 0.096421346 0.46140808 -0.6849631 1.5692109 -1.8022448
0.15503556 -0.16751446 -0.10949476 -0.33141673 0.4931432 -0.21900402 0.4341308 -0.43205386
-0.42021775 1.6841552 -0.18061924 -0.24363513 -0.26231527 0.27958965 -0.35237694 0.45492852
-0.45180193 -0.26719412 0.42563233 0.6445111 -1.2590747 -0.1790403 -0.029865328 0.20525503
-0.5294991 0.61961615 0.059704944 -0.7519818 -1.1607827 -1.5501512 -0.072703555 -0.75096405
-0.5738158 0.7062368 -0.4861921 0.42214286 -0.2767802 -0.09681507 1.4447062 0.13627473
0.84361756 -0.5078959 -0.39409417 0.08154845 -0.18297379 -0.14125562 -0.06089562 0.2560378
-0.66446465 -0.21603027 -0.9807623 -0.58734727 -0.5878043 -0.06328846 0.15722595 -0.53186375
-0.26488638 0.4798646 0.35180777 0.7960345 -0.14023764 0.14301881 -0.16006878 -0.1782806
0.18985622 0.24891984 0.34646207 -0.6259597 -0.34313932 0.64006996 1.0096388 -0.086440116
-0.11445014 -0.55652696 0.6415537 -0.10885754 -0.43088 0.41935578 -0.12825818 0.77910656
0.35985458 -0.5698596 -0.50018585 0.076934144 -0.22512907 -0.675426 0.6703904 -0.26966253
0.756422 0.06233682 -1.1280204 -0.07220082 -0.052467935 -0.4375518 0.5013946 0.15139931
0.42298496 -0.30192798 0.633131 1.0151036 1.308041 -0.27515948 -0.5282972 0.27071792
0.070544176 -0.27851567 -0.45959026 0.39232087 1.3637949 -0.19360942 -1.3154209 -0.5641931
-0.52616453 0.26327133 -0.019248396 -0.3152155 0.25764105 0.18472475 0.29759377 -0.9748933
-1.7970566 -0.32170975 -0.43820143 -0.0760235 -0.20342863 -0.23582208 -0.23993342 0.4611665
-0.5775231 -0.9402934 1.1090981 0.24521188 0.15271394 0.29952624 -0.23090039 0.25521782
0.13756378 -0.4749713 -0.12576076 -0.09227857 -0.3918368 -0.29814598 -0.16513032 -0.05036341
-0.077840745 -0.42250094 0.088732556 0.42619735 -1.4284441 0.24037252 1.100176 -0.054748558
0.3235285 -0.3978835 0.71313024 -0.5260701 0.52951056 -0.14912657 -0.80169314 -0.032409426
0.49277383 0.21970192 -0.05798365 -0.32999668 0.65771675 0.4733375 -0.5631746 0.07940526
-1.2313979 1.8827523 0.18540318 0.24819703 0.028682947 0.2459798 -0.0879612 0.11669639
0.33561653 -0.494681 0.11230748 -0.42733586 1.2182616 -0.54293257 -0.62946254 -0.47159925
0.6017112 0.36464143 -0.5911499 0.09285801 0.59175545 -0.056717437 1.0403713 0.656693
0.38053125 0.081648126 0.06498559 -0.078185484 0.4872812 -0.5328899 -0.3779039 0.1637447
-1.8196563 0.35725707 0.06968722 0.21038836 -0.034481734 0.3945086 -0.31091702 -0.11280636
-0.94488645 -0.43900344 0.5036207 0.6544691 0.75085944 0.4794822 -0.16799843 0.17360361
-0.11821877 0.15005037 1.026304 0.26637396 1.5073646 0.47990793 0.3708765 -0.05491062
